…
    "        fig.savefig(\"gen_imgs_vanilla/%d.png\" % (step))\n",
    "        plt.close()"
   ]
  },
  {
   "cell_type": "code",
   "execution_count": 51,
   "id": "a0665a08",
   "metadata": {
    "scrolled": true
   },
   "outputs": [
    {
     "name": "stdout",
     "output_type": "stream",
     "text": [
      "-----------------discriminator\n",
      "_________________________________________________________________\n",
      "Layer (type)                 Output Shape              Param #   \n",
      "=================================================================\n",
      "input_13 (InputLayer)        (None, 28, 28, 1)         0         \n",
      "_________________________________________________________________\n",
      "flatten_5 (Flatten)          (None, 784)               0         \n",
      "_________________________________________________________________\n",
      "dense_37 (Dense)             (None, 1024)              803840    \n",
      "_________________________________________________________________\n",
      "leaky_re_lu_29 (LeakyReLU)   (None, 1024)              0         \n",
      "_________________________________________________________________\n",
      "dense_38 (Dense)             (None, 512)               524800    \n",
      "_________________________________________________________________\n",
      "leaky_re_lu_30 (LeakyReLU)   (None, 512)               0         \n",
      "_________________________________________________________________\n",
      "dense_39 (Dense)             (None, 256)               131328    \n",
      "_________________________________________________________________\n",
      "leaky_re_lu_31 (LeakyReLU)   (None, 256)               0         \n",
      "_________________________________________________________________\n",
      "dense_40 (Dense)             (None, 1)                 257       \n",
      "=================================================================\n",
      "Total params: 2,920,450\n",
      "Trainable params: 1,460,225\n",
      "Non-trainable params: 1,460,225\n",
      "_________________________________________________________________\n",
      "None\n",
      "-----------------generator\n",
      "_________________________________________________________________\n",
      "Layer (type)                 Output Shape              Param #   \n",
      "=================================================================\n",
      "input_14 (InputLayer)        (None, 100)               0         \n",
      "_________________________________________________________________\n",
      "dense_41 (Dense)             (None, 128)               12928     \n",
      "_________________________________________________________________\n",
      "leaky_re_lu_32 (LeakyReLU)   (None, 128)               0         \n",
      "_________________________________________________________________\n",
      "batch_normalization_17 (Batc (None, 128)               512       \n",
      "_________________________________________________________________\n",
      "dense_42 (Dense)             (None, 256)               33024     \n",
      "_________________________________________________________________\n",
      "leaky_re_lu_33 (LeakyReLU)   (None, 256)               0         \n",
      "_________________________________________________________________\n",
      "batch_normalization_18 (Batc (None, 256)               1024      \n",
      "_________________________________________________________________\n",
      "dense_43 (Dense)             (None, 512)               131584    \n",
      "_________________________________________________________________\n",
      "leaky_re_lu_34 (LeakyReLU)   (None, 512)               0         \n",
      "_________________________________________________________________\n",
      "batch_normalization_19 (Batc (None, 512)               2048      \n",
      "_________________________________________________________________\n",
      "dense_44 (Dense)             (None, 1024)              525312    \n",
      "_________________________________________________________________\n",
      "leaky_re_lu_35 (LeakyReLU)   (None, 1024)              0         \n",
      "_________________________________________________________________\n",
      "batch_normalization_20 (Batc (None, 1024)              4096      \n",
      "_________________________________________________________________\n",
      "dense_45 (Dense)             (None, 784)               803600    \n",
      "_________________________________________________________________\n",
      "reshape_5 (Reshape)          (None, 28, 28, 1)         0         \n",
      "=================================================================\n",
      "Total params: 1,514,128\n",
      "Trainable params: 1,510,288\n",
      "Non-trainable params: 3,840\n",
      "_________________________________________________________________\n",
      "None\n",
      "-----------------adversarial\n",
      "_________________________________________________________________\n",
      "Layer (type)                 Output Shape              Param #   \n",
      "=================================================================\n",
      "input_15 (InputLayer)        (None, 100)               0         \n",
      "_________________________________________________________________\n",
      "model_14 (Model)             (None, 28, 28, 1)         1514128   \n",
      "_________________________________________________________________\n",
      "model_13 (Model)             (None, 1)                 1460225   \n",
      "=================================================================\n",
      "Total params: 2,974,353\n",
      "Trainable params: 1,510,288\n",
      "Non-trainable params: 1,464,065\n",
      "_________________________________________________________________\n",
      "None\n"
     ]
    }
   ],
   "source": [
    "vanilla_gan = VanillaGAN()"
   ]
  },
  {
   "cell_type": "code",
   "execution_count": 52,
…
  },
  {
   "cell_type": "code",
   "execution_count": 70,
   "id": "d3f3f0fb",
   "metadata": {},
   "outputs": [
    {
     "name": "stdout",
     "output_type": "stream",
     "text": [
      "-----------------discriminator\n",
      "__________________________________________________________________________________________________\n",
      "Layer (type)                    Output Shape         Param #     Connected to                     \n",
      "==================================================================================================\n",
      "input_41 (InputLayer)           (None, 1)            0                                            \n",
      "__________________________________________________________________________________________________\n",
      "input_40 (InputLayer)           (None, 28, 28, 1)    0                                            \n",
      "__________________________________________________________________________________________________\n",
      "embedding_11 (Embedding)        (None, 1, 784)       7840        input_41[0][0]                   \n",
      "__________________________________________________________________________________________________\n",
      "flatten_19 (Flatten)            (None, 784)          0           input_40[0][0]                   \n",
      "__________________________________________________________________________________________________\n",
      "flatten_18 (Flatten)            (None, 784)          0           embedding_11[0][0]               \n",
      "__________________________________________________________________________________________________\n",
      "multiply_5 (Multiply)           (None, 784)          0           flatten_19[0][0]                 \n",
      "                                                                 flatten_18[0][0]                 \n",
      "__________________________________________________________________________________________________\n",
      "dense_82 (Dense)                (None, 1024)         803840      multiply_5[0][0]                 \n",
      "__________________________________________________________________________________________________\n",
      "leaky_re_lu_64 (LeakyReLU)      (None, 1024)         0           dense_82[0][0]                   \n",
      "__________________________________________________________________________________________________\n",
      "dense_83 (Dense)                (None, 512)          524800      leaky_re_lu_64[0][0]             \n",
      "__________________________________________________________________________________________________\n",
      "leaky_re_lu_65 (LeakyReLU)      (None, 512)          0           dense_83[0][0]                   \n",
      "__________________________________________________________________________________________________\n",
      "dense_84 (Dense)                (None, 256)          131328      leaky_re_lu_65[0][0]             \n",
      "__________________________________________________________________________________________________\n",
      "leaky_re_lu_66 (LeakyReLU)      (None, 256)          0           dense_84[0][0]                   \n",
      "__________________________________________________________________________________________________\n",
      "dense_85 (Dense)                (None, 1)            257         leaky_re_lu_66[0][0]             \n",
      "==================================================================================================\n",
      "Total params: 2,936,130\n",
      "Trainable params: 1,468,065\n",
      "Non-trainable params: 1,468,065\n",
      "__________________________________________________________________________________________________\n",
      "None\n",
      "-----------------generator\n",
      "__________________________________________________________________________________________________\n",
      "Layer (type)                    Output Shape         Param #     Connected to                     \n",
      "==================================================================================================\n",
      "input_43 (InputLayer)           (None, 1)            0                                            \n",
      "__________________________________________________________________________________________________\n",
      "embedding_12 (Embedding)        (None, 1, 100)       1000        input_43[0][0]                   \n",
      "__________________________________________________________________________________________________\n",
      "input_42 (InputLayer)           (None, 100)          0                                            \n",
      "__________________________________________________________________________________________________\n",
      "flatten_20 (Flatten)            (None, 100)          0           embedding_12[0][0]               \n",
      "__________________________________________________________________________________________________\n",
      "multiply_6 (Multiply)           (None, 100)          0           input_42[0][0]                   \n",
      "                                                                 flatten_20[0][0]                 \n",
      "__________________________________________________________________________________________________\n",
      "dense_86 (Dense)                (None, 128)          12928       multiply_6[0][0]                 \n",
      "__________________________________________________________________________________________________\n",
      "leaky_re_lu_67 (LeakyReLU)      (None, 128)          0           dense_86[0][0]                   \n",
      "__________________________________________________________________________________________________\n",
      "batch_normalization_37 (BatchNo (None, 128)          512         leaky_re_lu_67[0][0]             \n",
      "__________________________________________________________________________________________________\n",
      "dense_87 (Dense)                (None, 256)          33024       batch_normalization_37[0][0]     \n",
      "__________________________________________________________________________________________________\n",
      "leaky_re_lu_68 (LeakyReLU)      (None, 256)          0           dense_87[0][0]                   \n",
      "__________________________________________________________________________________________________\n",
      "batch_normalization_38 (BatchNo (None, 256)          1024        leaky_re_lu_68[0][0]             \n",
      "__________________________________________________________________________________________________\n",
      "dense_88 (Dense)                (None, 512)          131584      batch_normalization_38[0][0]     \n",
      "__________________________________________________________________________________________________\n",
      "leaky_re_lu_69 (LeakyReLU)      (None, 512)          0           dense_88[0][0]                   \n",
      "__________________________________________________________________________________________________\n",
      "batch_normalization_39 (BatchNo (None, 512)          2048        leaky_re_lu_69[0][0]             \n",
      "__________________________________________________________________________________________________\n",
      "dense_89 (Dense)                (None, 1024)         525312      batch_normalization_39[0][0]     \n",
      "__________________________________________________________________________________________________\n",
      "leaky_re_lu_70 (LeakyReLU)      (None, 1024)         0           dense_89[0][0]                   \n",
      "__________________________________________________________________________________________________\n",
      "batch_normalization_40 (BatchNo (None, 1024)         4096        leaky_re_lu_70[0][0]             \n",
      "__________________________________________________________________________________________________\n",
      "dense_90 (Dense)                (None, 784)          803600      batch_normalization_40[0][0]     \n",
      "__________________________________________________________________________________________________\n",
      "reshape_10 (Reshape)            (None, 28, 28, 1)    0           dense_90[0][0]                   \n",
      "==================================================================================================\n",
      "Total params: 1,515,128\n",
      "Trainable params: 1,511,288\n",
      "Non-trainable params: 3,840\n",
      "__________________________________________________________________________________________________\n",
      "None\n",
      "-----------------adversarial\n",
      "__________________________________________________________________________________________________\n",
      "Layer (type)                    Output Shape         Param #     Connected to                     \n",
      "==================================================================================================\n",
      "input_44 (InputLayer)           (None, 100)          0                                            \n",
      "__________________________________________________________________________________________________\n",
      "input_45 (InputLayer)           (None, 1)            0                                            \n",
      "__________________________________________________________________________________________________\n",
      "model_29 (Model)                (None, 28, 28, 1)    1515128     input_44[0][0]                   \n",
      "                                                                 input_45[0][0]                   \n",
      "__________________________________________________________________________________________________\n",
      "model_28 (Model)                (None, 1)            1468065     model_29[1][0]                   \n",
      "                                                                 input_45[0][0]                   \n",
      "==================================================================================================\n",
      "Total params: 2,983,193\n",
      "Trainable params: 1,511,288\n",
      "Non-trainable params: 1,471,905\n",
      "__________________________________________________________________________________________________\n",
…
